app/src/main/ml/model.tflite (tflite, 149220 bytes, 10 tensors)

sequential/conv2d/Relu;sequential/conv2d/BiasAdd;sequential/conv2d_2/Conv2D;sequential/conv2d/Conv2D;sequential/conv2d/BiasAdd/ReadVariableOp f4 [32, 3, 3, 3]
00000000: 08ce 9b39 e007 b339 2523 2539 3b7a 1cb9
00000010: 8f08 f1b9 96e2 9739 f963 f9b9 1a7d 1839
00000020: 9a19 03ba 60d3 d838 3bcc 8039 fe90 c9b9
00000030: fc32 ca39 2404 c439 b784 7639 df0e c039
00000040: d555 4eb7 9877 80b9 7c98 c339 7a86 2537
00000050: c6c9 8db9 1b0e 93b8 e236 c4b9 0e7b 05ba
00000060: 69cd 8139 0323 eb39 be61 17ba 863b c639
00000070: 05d4 6338 e152 52b9 0d79 2038 7d42 c138
00000080: 1548 1bb9 9a8e 97b6 7707 1f39 d85f a739
00000090: 97ff 7839 06d1 cfb9 814b a539 d4ba 6738
000000a0: 19b8 8538 bb69 17ba b2f2 3cb9 aef7 e739
000000b0: 1d5a 1cba fe88 90b9 7ef6 3239 399d 05b9
000000c0: 709f aa39 4e56 47b9 432d d7b9 b0e2 2e38
000000d0: f06b 6339 f222 97b9 a9db 3239 fc03 fa39
000000e0: 8e0f 8d38 da36 a639 7e1f 23b9 e0fa 02ba
000000f0: ab3e 023a 8e3c 96b9 1aba 5b39 f646 95b7
00000100: 2db8 b739 78c1 24b9 c252 5fb9 e80a 08ba
00000110: 4637 1438 462b 8ab9 68a3 b339 5735 6238
00000120: bc33 063a 3dae 0eba f117 12b7 b14c 84b9
00000130: c689 0339 fffd 64b8 1255 2fb9 3c92 b539
00000140: 1803 61b9 46d3 fa39 5745 d939 e015 9ab9
00000150: b915 98b8 96a2 08b8 ac05 b5b9 6764 9537
00000160: 5a87 54b7 8bd3 4438 9e84 15b9 721f 7937
00000170: 6a2e dcb9 2313 d4b9 640e fc39 fad7 8039
00000180: 7bb4 4c39 9413 ae39 81c9 74b9 ca57 bf39
00000190: 8aef ad39 06c9 8139 103f c939 936d dd38
000001a0: d6a1 ffb9 41ae 9fb9 1bd8 7639 0da4 26ba
000001b0: 97c7 a139 a2bb 5a39 60dd 223a b124 05ba
000001c0: 04db 1cb7 0c79 9839 ba3e a1b9 5a71 16ba
000001d0: 9a16 2cb9 ec31 043a b23a 8039 f5f9 64b8
000001e0: 7745 29b9 5c94 5139 f732 1e3a 9ac8 9f39
000001f0: adbd 0eba 800f 3db9 5d84 d139 8eb6 123a
00000200: ce67 0f39 ebe6 2bb9 e232 6d39 147a 7239
00000210: 3782 a938 7263 d5b9 71e3 b439 cbe8 9839
00000220: d692 b139 57e0 d0b7 9884 e738 ccfb 1eb9
00000230: b7a1 233a cce3 c538 204a fd39 d8cf ce37
00000240: 05cb 90b9 2374 06ba bc2e 63b9 2960 1a3a
00000250: 9914 8c39 b0b9 8b38 3c2f 1eb9 28aa 12ba
00000260: 5856 77b9 b351 3bb9 6360 27ba 2842 64b9
00000270: d2d7 063a 4488 0dba 3957 4e39 ea0b c4b9
00000280: f092 2bba 777c 363a ada8 a7b8 b5a5 dc39
00000290: 7708 1739 d4f1 9db9 93cb 8538 dc57 bd38
000002a0: 51b8 1aba 7df3 6b39 939e 0b38 e88d 74b9
000002b0: 9ace 86b9 d164 7739 65f9 e139 f357 1738
000002c0: d114 6239 6814 b1b9 109f 4639 f199 0fba
000002d0: e903 f5b9 0e03 1139 fa8e 1439 c62f d639
000002e0: 39ed 6c39 8e6c 7938 3f4c 2639 80d6 cf39
000002f0: d456 a2b9 e84e c8b9 1374 80b9 e27b a739
00000300: fa8c 0039 a6de 6c39 8771 ad39 8622 a2b9
00000310: a961 8db9 f1c7 b538 bea3 3036 99e9 003a
00000320: 2415 97b7 159e 01ba 4114 89b9 2144 4d39
00000330: f8f7 f939 600d 3e39 4257 d0b9 db13 9039
00000340: dd8d ae39 06a7 c2b9 d617 fdb9 905f ab39
00000350: cbcb 1d3a 88da 2fb9 93e1 023a 5b5b 8239
00000360: f528 52b9 07dd d2b9 3729 8e39 16d7 eb39
00000370: a3e5 9939 9f4d 6739 a323 00b7 7e33 be39
00000380: 892b bdb9 3f13 4fb9 f267 a939 d318 a4b9
00000390: ef1a 8636 8a07 5639 5300 0a3a 13db bd38
000003a0: 6012 06b9 1435 113a dd0d da39 8f98 103a
000003b0: 6c2e fcb8 9ea8 d239 258d 91b9 22e9 4f39
000003c0: fc44 09ba 8eae 52b8 5664 1d3a 2819 44b9
000003d0: eab0 0c3a 7275 88b9 7dec 8939 7eba a338
000003e0: daf5 1837 9edc 84b9 2ed8 16ba ad2d 12ba
000003f0: f092 6b39 a904 0939 be99 8339 1252 b8b9
0.0002971741 0.00034147408 0.00015748719 -0.00014922854 -0.0004597348 0.00028969784 -0.00047567466 0.00014542454
-0.00050010683 0.00010339054 0.00024566226 -0.00038445735 0.0003856643 0.00037387118 0.00023509828 0.00036632174
-1.2298541e-05 -0.00024503167 0.00037306908 9.866077e-06 -0.0002704395 -7.0121336e-05 -0.00037424924 -0.0005091884
0.0002475784 0.0004484878 -0.00057747576 0.0003780985 5.4318476e-05 -0.00020058035 3.825971e-05 9.2153416e-05
-0.00014808805 -4.5167517e-06 0.00015166203 0.0003192413 0.00023746338 -0.0003963785 0.00031527507 5.524869e-05
6.376225e-05 -0.0005775948 -0.00018019488 0.0004424429 -0.00059643557 -0.00027567887 0.00017067228 -0.00012742438
0.00032543717 -0.0001901027 -0.00041041718 4.1695952e-05 0.00021688617 -0.00028827 0.00017057233 0.00047686684
6.726301e-05 0.00031702855 -0.00015556623 -0.000499649 0.00049684447 -0.00028655346 0.00020954796 -1.7795228e-05
0.00035041702 -0.00015712332 -0.00021297767 -0.00051896134 3.5337427e-05 -0.00026353652 0.00034263288 5.3932275e-05
0.00051194034 -0.00054428336 -8.707852e-06 -0.00025234142 0.00012544458 -5.459599e-05 -0.00016720992 0.00034631963
-0.00021458825 0.00047841127 0.00041441128 -0.00029389467 -7.251971e-05 -3.2576347e-05 -0.00034527236 1.7808938e-05
-1.2667699e-05 4.6927056e-05 -0.00014259151 1.4848878e-05 -0.0004199625 -0.0004045005 0.00048075907 0.00024574978
0.0001952219 0.00033202453 -0.0002334472 0.00036495767 0.00033175602 0.00024754571 0.00038384693 0.00010558511
-0.00048757967 -0.00030456673 0.00023540894 -0.0006356843 0.0003085702 0.00020859999 0.0006212797 -0.0005079015
-9.349318e-06 0.00029081886 -0.00030755048 -0.00057389366 -0.00016411618 0.00050428393 0.00024457794 -5.4592227e-05
-0.00016142974 0.00019987061 0.0006034816 0.00030476303 -0.0005445134 -0.00018030219 0.00039962205 0.0005596661
0.00013676213 -0.00016393854 0.00022621037 0.00023124396 8.0828024e-05 -0.00040700618 0.00034501732 0.00029165143
0.00033869472 -2.4899999e-05 0.00011039636 -0.00015161856 0.0006242054 9.4361225e-05 0.00048311148 2.4653898e-05
-0.00027617082 -0.0005129 -0.00021665817 0.0005888963 0.00026718227 6.6626235e-05 -0.0001508565 -0.0005594813
-0.00023587921 -0.00017864145 -0.0006384907 -0.0002176842 0.0005143854 -0.00053990283 0.00019678184 -0.0003739291
-0.0006545028 0.0006961296 -7.994599e-05 0.0004208513 0.00014403636 -0.0003012555 6.379853e-05 9.0285874e-05
-0.0005902099 0.00022502053 3.3287866e-05 -0.00023322518 -0.00025712402 0.00023593313 0.00043101158 3.6083115e-05
0.00021560794 -0.00033775275 0.00018942007 -0.0005477956 -0.00046732955 0.00013829416 0.00014167643 0.00040852855
0.00022595086 5.9467326e-05 0.00015859398 0.00039641932 -0.0003096374 -0.00038205762 -0.00024500545 0.00031945022
0.00012259549 0.00022589657 0.00033081716 -0.0003092477 -0.00026966378 8.6679946e-05 2.6321354e-06 0.0004917621
-1.8010447e-05 -0.00049445155 -0.00026145767 0.00019575703 0.00047677732 0.00018124795 -0.00039737864 0.00027480614
0.00033293563 -0.00037127006 -0.0004827368 0.0003268686 0.0006019442 -0.0001677071 0.00049927196 0.00024863597
-0.00020042418 -0.00040219 0.00027115058 0.00044982944 0.00029353527 0.00022058793 -7.637692e-06 0.0003627799
-0.00036081325 -0.00019748228 0.00032311637 -0.00031299013 3.9966467e-06 0.00020411439 0.00052643305 9.053028e-05
-0.00012786081 0.00055392203 0.0004159053 0.0005515897 -0.00012024943 0.0004017995 -0.00027761716 0.00019827907
-0.0005236415 -5.023047e-05 0.0006004026 -0.00018701388 0.00053669384 -0.00026027445 0.00026306874 7.8071826e-05
9.117148e-06 -0.00025341375 -0.0005754259 -0.0005576264 0.00022466085 0.00013067074 0.00025100814 -0.00035156362

sequential/conv2d/BiasAdd/ReadVariableOp f4 [32]
00000000: 87fa 82bb 4106 eabb 65fe 273b 9c91 21bd
00000010: 1abe 55bd a5b7 353d 6a3d 733c 103a a1bb
00000020: 246b bfbc 2ef2 9a3b eb74 1a3c 7cf9 febc
00000030: 7dda 6fbc eb47 893c 38b1 0cbc 1705 f23a
00000040: bdc0 c5bb 68bd f23c c277 febc accb bb3b
00000050: 0393 6fbb e884 49bd c362 32bd 585e 47bb
00000060: cd23 50bc 863d 49bc a88e 09bc dfe7 f5bc
00000070: 0604 1e3c 52e4 853b 2b80 0f3d 5dfd 76bb
-0.0039971503 -0.007141859 0.0025633809 -0.039445505 -0.052183248 0.04436459 0.014846185 -0.0049202517
-0.023366518 0.004728577 0.0094272895 -0.031124823 -0.014639494 0.016757926 -0.008587174 0.0018464652
-0.006034939 0.029631332 -0.031062964 0.0057310667 -0.0036556132 -0.049199015 -0.043551218 -0.0030421223
-0.012703848 -0.012282735 -0.008395828 -0.030017791 0.009644514 0.004086056 0.03503434 -0.0037687637

sequential/conv2d_1/BiasAdd/ReadVariableOp f4 [32]
00000000: 9ccd e2ba d98a e0bb 2b5a d0bc 8a6c 0dbd
00000010: 3436 bbbc 2759 05bc 4002 fcbb e963 a1bc
00000020: 8862 aabb 69dd b4bb 0fbc 39bc 17d4 5eba
00000030: 32d7 12bb af80 b03c b909 013d 30cf dfbb
00000040: 277c fdbb 9de1 4dbc 8860 0abc 4393 10bd
00000050: 0d61 d3bb 965e b7bb c3a4 01bc 873f 753c
00000060: 6ade d9bc ace7 2abd 53da fdba d362 c93b
00000070: d48c 98bb 0fb3 9a3a 0000 0000 fa50 fa3c
-0.0017303708 -0.0068524894 -0.02543362 -0.03452734 -0.022852995 -0.008138931 -0.007690698 -0.019700961
-0.005199734 -0.005519558 -0.011336341 -0.0008500232 -0.0022406098 0.021545736 0.031503413 -0.0068301186
-0.0077357474 -0.012565997 -0.008445866 -0.03529669 -0.0064507783 -0.0055959923 -0.007912817 0.014968759
-0.026595313 -0.041724846 -0.0019367434 0.006145814 -0.00465546 0.0011802631 0.0 0.03055619

sequential/conv2d_2/BiasAdd/ReadVariableOp f4 [32]
00000000: 2487 903c afdc 10bc 1c57 b1bb d11d eebb
00000010: f593 983c e895 0cbc a302 febb 3b9d 6a3b
00000020: e45c 0a3d 3c97 c3bc 5dfd 9fbc 7ce5 b839
00000030: 2125 a03c fa8b b6bc cacc c33b 4e1d c9ba
00000040: fd8b 37bb 7fd8 e0bb 0000 0000 c29d 7bbc
00000050: 36e4 963b 5c9c 73bc 1b51 ae3c 5145 093c
00000060: 1c48 bc3b 38af c4bb f553 463c 0a87 9c3b
00000070: 0000 0000 4b41 6bbb a6a4 873c bf8f d43c
0.017642565 -0.008841678 -0.0054119956 -0.007266738 0.018625239 -0.008580662 -0.007751779 0.0035799283
0.033779994 -0.023875825 -0.019529993 0.00035266194 0.019548954 -0.022283543 0.0059753405 -0.0015343816
-0.0028007024 -0.006861746 0.0 -0.015357437 0.0046048416 -0.014868822 0.021278908 0.008378343
0.005745901 -0.006002333 0.012104978 0.00477684 0.0 -0.0035897072 0.016558003 0.02594745

sequential/conv2d_1/Conv2D f4 [32, 3, 3, 32]
00000000: 706c be3c 5261 8a3d 7060 7abc 211f ac3d
00000010: 65b5 5c3d fcc1 b7bd c81b e03d 2133 973d
00000020: 7b32 9e3d 2797 a4bc 9ce2 c93d 16b6 4b3d
00000030: 2203 a13d b0ee 813b c73b 90bd c752 413d
00000040: 034c b3bc 0c8e 0bbe 2667 5e3d d699 83bd
00000050: 4690 b5bd 79ae c93d 647d 98bc 623c 9f3d
00000060: f6a2 2ebc b3cc be3a d7c9 0abd 5e69 ec3c
00000070: 598c 60bd 07e6 3bbd 0b37 50bc 8c7b eabd
00000080: b050 343d e41c f83c bd1d d8bd 404e a2bd
00000090: 3ef7 b23d 9a35 56bd e1a0 e43c 281c bcbd
000000a0: e9d0 8ebd 8cb2 ddbd 3e8c 28bd a9ce 8b3d
000000b0: 68ad 05bd 6c46 e0bd 82e5 82bd be04 973d
000000c0: 7f32 93bd c58f 1cbe ae3f adbd 9c18 7fbc
000000d0: 529a d93d fa65 703d 99a8 53bd a5c6 18bd
000000e0: 1301 7f3c 0ca2 33bc 1a85 c23d b3fa a13d
000000f0: 7c58 cbbd ad62 db3d 703e 8c3c 6117 1fbd
00000100: 69dd 0f3d 07cd cb3d f093 c4bc f83a c93d
00000110: 0c2a 14bd d2b4 adbd 47a6 03be 8b76 69bc
00000120: 3018 9dbd cbde 9e3d 4f20 9a3d 7f95 c5bd
00000130: 9b30 d23d cb8a b6bc e957 abbd 82ae 08bd
00000140: e90d 3dbd b76c bcbd acf8 5a3c ce8e c83d
00000150: 6517 e63d bad6 593d d99c cfbd 384b 09bd
00000160: eb36 743c 66c8 ce3d e4e9 d53d 72cc c4bd
00000170: 6ed3 86bd 9837 c03d 385d 183d d02a 6abb
00000180: 8306 2dbd ab42 2abd cd5f ce3d d376 83bd
00000190: 9fc4 153d f577 0cbe 8218 f0bd 0399 b2bd
000001a0: f1f3 59bc c0ea 1c3d bb48 a23d 18c1 87bd
000001b0: e5cf a13d 7bfa d1bd b177 3ebd e907 f53d
000001c0: cdcb 8dbc c648 e0bd bc84 9f3d 0a8c 8f3d
000001d0: 13a4 c83d 7a79 5d3d 1a2f 553c df83 4abc
000001e0: 7882 8bbb 75f2 9e3d 0e19 e4bc 1229 c0bc
000001f0: f011 b23d 6040 653d 3fd0 b23d 90de 72bc
00000200: d24a da3d b096 a43d 858c 15bc 5623 22bc
00000210: d5f6 3ebd 16a6 2fbe c412 7fbb 460a 723d
00000220: 3cfe 86bd 368e 5d3d f05d ef3c e885 343c
00000230: 1382 633c e124 6bbd de2e 51bd 6112 56bd
00000240: 64dc 7fbd af38 f4bd 8579 aabd 222f 98bd
00000250: 8f8e 833d c34f 96bd 57bd 85bd bd01 08bb
00000260: c5bf a4bc 2985 663d 70b6 febc 4b66 cd3c
00000270: 18fa 9cbd 150f ef3d 103c 05bd db98 22be
00000280: 438d cd3d be66 353c 8384 22bd 1124 143c
00000290: 5781 31bc 8faa 0fbe 840b 8ebd 17de 18bd
000002a0: 4e15 aebc 6486 6a3d d922 6e3d 88b5 5dbd
000002b0: 949f ad3d fde5 b0bb 17e2 99bd 6e4c 823d
000002c0: 4c6c 69bd 60d6 8ebd 2a3f 903d fb05 713d
000002d0: 97f5 97bd 1f6c 663c 96bc cb3b 4889 34bd
000002e0: 7ba4 9ebd 28da 413d 0b8f 983d 2b62 be3b
000002f0: 0341 c6bd 6185 b13d b9b4 103e 3da3 58bd
00000300: 7298 b93d ba14 023e 5b92 593d 4675 8e3d
00000310: 4cc9 e03c 0cde 31be c223 6a3b 2af8 a73c
00000320: 5527 7a3c f47b cebc f751 863c 65ab 88bd
00000330: 115c b9bd 2d9b bdbd 73f7 7c3d a53c 6f3c
00000340: e2b5 8fbd bb4a 79bd 975c a53d a2bb d53d
00000350: 6484 333d d3b2 883d 00a7 8ebd 84bd d5bc
00000360: e1ab e63b 20a6 3fbd db24 e63c 933a 94bd
00000370: d746 acbc 2b33 3fbd 7457 f0bc 88d1 c1bc
00000380: 02ee 983d b3bd be3d f7e1 c9bd 5748 a5bd
00000390: d958 2a3d 9717 3bbd b9b1 ebbd ccd9 cebc
000003a0: 5c6c 4cbc 27db debc 8fc7 ca3c e58d 523c
000003b0: 0e73 a6bd 0e43 99bd 1e0c 42bd 2e00 babd
000003c0: 30cc f3bd bae6 3cbd ae04 3ebd 50a9 abbc
000003d0: 3915 e23d 7a2f 763d 15da 99bd 5ca8 b03d
000003e0: 7479 2b3d 7a7a 9f3d 4204 29bd f2a2 0c3d
000003f0: ad8a 69bd c8b8 5e3c 6169 723d 1fbe a9bd
0.023245066 0.067568436 -0.015281782 0.08404375 0.05388393 -0.089725465 0.10942799 0.07382799
0.07724472 -0.020091606 0.098576754 0.049734198 0.07861926 0.0039652213 -0.070426516 0.047198083
-0.021886831 -0.13628405 0.05429759 -0.06425826 -0.088654086 0.09847731 -0.018614478 0.07775189
-0.01065897 0.0014556855 -0.033883896 0.028858837 -0.054821346 -0.045873668 -0.012708436 -0.11449346
0.044022262 0.030287214 -0.10552547 -0.07925081 0.08738564 -0.052297212 0.027908744 -0.09185058
-0.0697344 -0.10825071 -0.04114937 0.06826527 -0.032636076 -0.10950932 -0.063914314 0.073739514
-0.07187366 -0.15289219 -0.084594116 -0.015569832 0.106251374 0.058691002 -0.05167446 -0.037298817
0.015564221 -0.010963928 0.09498043 0.07909145 -0.099289864 0.1071218 0.017119616 -0.038840655
0.035123263 0.09951215 -0.023996323 0.098257005 -0.03617291 -0.08481754 -0.12856399 -0.014249454
-0.07670629 0.07757338 0.075256936 -0.09647655 0.10263177 -0.022282979 -0.08366377 -0.03336955
-0.046155844 -0.09200423 0.013364952 0.09792863 0.11234931 0.053183295 -0.10137338 -0.033519
0.014905672 0.10096817 0.10445002 -0.09609307 -0.06583296 0.09385604 0.037198275 -0.0035731085
-0.04224254 -0.041567486 0.10076866 -0.06419148 0.036564466 -0.13717635 -0.117234245 -0.08720591
-0.013302789 0.038309813 0.079240285 -0.066286266 0.07900981 -0.102528535 -0.046500865 0.11964399
-0.017309094 -0.109513804 0.07788989 0.07009132 0.0979692 0.054070927 0.013011718 -0.012360542
-0.0042574964 0.07761089 -0.027843978 -0.023457084 0.086948276 0.055969596 0.08731126 -0.014823571
0.10658802 0.08036554 -0.009127741 -0.00989612 -0.046622116 -0.171532 -0.0038921097 0.05909183
-0.0659146 0.0540907 0.029219598 0.011018254 0.013885993 -0.057408217 -0.051070087 -0.05226362
-0.06246604 -0.11924874 -0.08323959 -0.07430865 0.06423675 -0.07339432 -0.06530254 -0.002075299
-0.020110974 0.056279335 -0.031092852 0.025073191 -0.07664889 0.116727985 -0.032527983 -0.15878622
0.10036709 0.011071859 -0.039677154 0.009041802 -0.01083406 -0.14029907 -0.0693579 -0.037321176
-0.021250393 0.05725707 0.058138702 -0.0541282 0.08477703 -0.0053985105 -0.07513826 0.06362234
-0.056988046 -0.069744825 0.070432976 0.058843594 -0.074198894 0.014063864 0.0062175496 -0.044076234
-0.07746216 0.04732719 0.07449158 0.0058100424 -0.09680369 0.08668018 0.1413144 -0.05289005
0.0906228 0.12703219 0.05311809 0.06955962 0.027439736 -0.1736986 0.003572688 0.020504076
0.015268167 -0.02520559 0.016396506 -0.06673316 -0.090507634 -0.09258113 0.061759423 0.014601861
-0.07017113 -0.060862284 0.08074301 0.10436179 0.04382743 0.06674733 -0.069654465 -0.026091345
0.0070395325 -0.04678929 0.028093746 -0.07237735 -0.021029873 -0.046679657 -0.029338576 -0.023659483
0.074672714 0.09313526 -0.098575525 -0.08070438 0.041588638 -0.045676794 -0.11508507 -0.025250338
-0.012477007 -0.02720411 0.02475336 0.012851213 -0.08127414 -0.07483493 -0.047374837 -0.090820655
-0.1190418 -0.046118475 -0.04639118 -0.020954758 0.11039204 0.06010387 -0.07512299 0.08625862
0.041863874 0.077870324 -0.041263826 0.034335084 -0.057017017 0.01359386 0.05918253 -0.08288216

sequential/conv2d_2/Conv2D f4 [32, 3, 3, 32]
00000000: f107 debd 493d c73d 7156 49bc 1641 973d
00000010: 8581 99bd 353f 6cbd 7de6 71bc c10a 32bd
00000020: 400b 50bc 78bb 3e3d dbcc cebc 1bf3 103c
00000030: 90ff 2c3d 6a85 e43d 1425 3c3c d83d 843c
00000040: 598f c03d c025 41bd e7bf dbba ce95 973d
00000050: 18fd c1bc 8ae8 9b3d 7266 c23c 8eff d03c
00000060: 6d31 9f3b e384 873d 8b06 85b9 da23 68bd
00000070: cc32 b23d 4005 293d c233 c53d 9e32 f13d
00000080: 275d dfbd d99e fd3b dc99 913d f642 923c
00000090: bf9e 963d f934 b6bd f430 9cbc c5af d23c
000000a0: 342a 943c c2a5 98bd 3f7b 9cbc 18ad 133d
000000b0: 7710 df3d 3233 f63d ca2a 6d3d bbaf 99bd
000000c0: 7909 66bd 03a9 8f3d b928 543d 90e3 823d
000000d0: 26b1 b33c 6347 963c d35f 393d 8775 b83d
000000e0: de87 44bd 6028 883d a009 093d 9dd2 8f3d
000000f0: 10d8 58bd 9c00 4f3d 886d a73d e311 223d
00000100: 8736 b03b 6cf0 5cbd 4385 5e3d 167b 913d
00000110: ce34 383d 4881 f83c 22b5 633d a6d0 54bb
00000120: 76b2 cc3d 7836 cf3c 5ebb b63d 77a1 9b3d
00000130: 5b3d c6bc 6f88 4ebd 04cd 923d a8d4 733d
00000140: d83a 99bd c785 a7bd 23dc 6f3d c74a c73d
00000150: 826a 72bd cf7a 48bd f657 81bd 6f34 1b3c
00000160: 62ec 313d 3116 5ebd c74b 493d f999 a1bd
00000170: d2ae 79bd c62e 5d3d 449f c53d 7f97 4dbc
00000180: 970e 053d a662 72bd 3dce 233d 8f86 a63d
00000190: d856 78bd 7483 383d 1bf4 623d 0c58 a1bd
000001a0: e054 9e3c bc3b 913d 2985 3cbc 8b58 3f3d
000001b0: 12d2 3a3d 184b 2dbb 6493 ee3d ec18 bebd
000001c0: 91a4 14bb 179c 1bbd 0e18 60bd 662a a03d
000001d0: 3932 81bd 4685 913d 000b 00be 82ed 80bc
000001e0: df78 523d d456 5a3c b3de f3bc 8249 cabd
000001f0: e757 8dbd c244 3a3c 84f1 7cbd 9088 ef3d
00000200: 0466 3ebd dca6 023c bf93 22bd 5e70 1b3d
00000210: 65f4 833d 2fb4 d33d 51d0 a53c 5c15 bcbd
00000220: 0217 79bd c861 bebd 93af bf3d ef9c 48bd
00000230: c209 753d a4e4 0dbd 8cdc 1b3d 9216 a33d
00000240: 7ebb d9bd 082c 8d3d 59a0 2cbd f5fe 293c
00000250: d5c9 bd3d 3275 0abd 53f9 b53c e1c8 b9bd
00000260: ce0b 47bd 3658 b33c dc85 83bc 11f1 b0bd
00000270: 56f4 973c 4d35 6fbd 5095 5c3c 98e8 b53d
00000280: 07eb 5b3d 41f4 5abc 824a 9a3c b780 ccbd
00000290: bbb7 a2bd 481e e33b 9772 d2bd 83d1 4bbd
000002a0: 3dc2 8dbd c0cd a53b 8afe 19bd 088d 633c
000002b0: 8255 58bd 82c0 3e3c 4ddd b23d 0928 213d
000002c0: cf34 613d 401d 6cbd ade0 48bc b95e 9dbd
000002d0: 83b5 f9bb f4f3 833d 5c64 9cbc 4422 723d
000002e0: 4973 6d3d 9f60 f43c c0b3 a0bd b2c3 403d
000002f0: 366f 223d 58b1 83bb eadc 8ebd 4dd8 273e
00000300: 07d5 97bd 0c20 87bd 9848 a3ba 0ce0 e2bd
00000310: 2849 623d 08c8 b73d 70d3 3bbb 9be8 cbbd
00000320: dc37 cfbd 081a d63c baf0 6abd 4744 ccbd
00000330: 6011 c7bd 477d c0bc cf6d 42bd 00cf 10bb
00000340: a229 ad3d 3853 91bc c3b2 063d dee4 e3bc
00000350: 4114 81bd e8fb 4b3d 947b 9a3d 259a 48bd
00000360: ceb1 3c3d fd9d 82bd 9f9b a9bd 4e9d d23c
00000370: 8fc3 0abd ac5d d33b 57ad c0bd 3504 0f3e
00000380: b0a1 edb9 ba76 d9bd 1bde adbd ba6b 883c
00000390: b752 453d 080e 693c 830a 4bbd e6ec 193d
000003a0: 90e0 3f3d 180f ce3d aad0 7a3d 95ff 95bd
000003b0: 5742 a7bd 1f44 993d 3a26 c93d 281e 703d
000003c0: 7e74 913d 6d7d b6bd 1cb4 90bd 1851 abbd
000003d0: 41ba 463d 7054 253d 1f40 533d f1c8 a8bc
000003e0: dc71 933d 3d79 86bd 4df2 bdbd 4dd7 71bd
000003f0: c077 263d 1f7c babd f0be 9ebd 7b55 b13c
-0.108413585 0.09728486 -0.012288676 0.07385461 -0.07495407 -0.057677466 -0.014764425 -0.043467287
-0.012697995 0.046565503 -0.025244167 0.008847023 0.04223591 0.11158259 0.0114834495 0.01614277
0.094023414 -0.04715514 -0.0016765565 0.0740162 -0.023680255 0.07612713 0.02373049 0.025512483
0.004858187 0.06617143 -0.00025372612 -0.056674816 0.08701095 0.041264772 0.09629013 0.117772326
-0.10906439 0.0077398834 0.071094245 0.017854195 0.07354497 -0.088968225 -0.019066311 0.02571858
0.01808653 -0.07453491 -0.019101737 0.036053747 0.10891812 0.120214835 0.057902135 -0.07504221
-0.056161378 0.07014658 0.05179665 0.0639106 0.021935057 0.018344587 0.0452574 0.090067916
-0.047981136 0.06648326 0.033456445 0.07022593 -0.05294043 0.05053769 0.08175188 0.03956784
0.005377594 -0.05394022 0.054326307 0.07103555 0.044972233 0.030335084 0.055592664 -0.0032472997
0.09994976 0.025294527 0.08922456 0.07599156 -0.024199178 -0.050423082 0.0716801 0.059528977
-0.07481927 -0.08179813 0.058559548 0.097310595 -0.059183605 -0.048945244 -0.06315605 0.00947295
0.043438323 -0.054220382 0.049144533 -0.07890696 -0.060957737 0.053999685 0.09649518 -0.0125483265
0.032484617 -0.05917611 0.039991606 0.08131134 -0.060629696 0.04504724 0.05540858 -0.07878122
0.01932758 0.070914716 -0.011506357 0.0467153 0.045610495 -0.0026442464 0.11649206 -0.09282097
-0.0022681097 -0.037990656 -0.05471044 0.07820587 -0.06308407 0.07105498 -0.12504196 -0.015738253
0.051384803 0.0133263655 -0.029769277 -0.09877302 -0.06901532 0.011368932 -0.061753765 0.11695969
-0.04648401 0.007974353 -0.039691683 0.03794896 0.06443099 0.10337102 0.020240935 -0.091837615
-0.060812958 -0.09295994 0.0935966 -0.04897779 0.05982376 -0.034641877 0.038052127 0.07963289
-0.106314644 0.06893164 -0.042145107 0.010375728 0.09267012 -0.033803172 0.022213614 -0.09071518
-0.048595242 0.021892648 -0.01605504 -0.0863973 0.018549126 -0.05840044 0.013463333 0.08882254
0.053690936 -0.013363899 0.018834356 -0.09985488 -0.079452 0.0069311 -0.102757625 -0.049760353
-0.06921814 0.0050599277 -0.037596263 0.013888605 -0.05281592 0.011642577 0.08733616 0.03934482
0.054982003 -0.057645082 -0.012260598 -0.076840825 -0.007620515 0.06443015 -0.019090824 0.05911471
0.057971273 0.029831229 -0.078467846 0.04706163 0.03965684 -0.0040189438 -0.0697573 0.16391106
-0.074136786 -0.06597909 -0.0012457548 -0.1107789 0.05524555 0.089737 -0.0028659962 -0.09956475
-0.10118076 0.02613546 -0.05735848 -0.0997396 -0.09720111 -0.023497237 -0.047468003 -0.0022096038
0.084552065 -0.017739877 0.032885324 -0.027819093 -0.06302691 0.049800783 0.07543102 -0.04897513
0.046068005 -0.0637779 -0.082816355 0.025709774 -0.033877905 0.0064503755 -0.09408062 0.13966449
-0.0004532463 -0.106183484 -0.08489629 0.01665293 0.048174586 0.014224537 -0.04957057 0.03757944
0.04684502 0.10061473 0.061234154 -0.07324139 -0.0816695 0.07483696 0.09821744 0.05862251
0.07102297 -0.08910642 -0.07065603 -0.08365077 0.04851747 0.04036373 0.051574823 -0.020603629
0.07199451 -0.06566093 -0.09274731 -0.059043217 0.040641546 -0.091057055 -0.07751262 0.021647206

sequential/dense/BiasAdd/ReadVariableOp f4 [128]
00000000: 0000 0000 9c5b 16bc dbb1 2abc 5361 7bbc
00000010: e25c 963c 5325 3c3c b013 46bc 375d 253b
00000020: b20f 1dbc b156 49bc 7d18 043b 5327 42bc
00000030: 0000 0000 0000 0000 0000 0000 b797 03bc
00000040: 8bd1 16bc 78d3 00bc 0af6 d83c 5d1e 5ebc
00000050: cbb7 1a3c f8b7 c4bb 3dc9 583c e7b6 55bc
00000060: 3d00 9e3b 44cf d33b c226 45bc 3633 5d3b
00000070: 3758 41bc 50cf 733c 5427 8ebc 0000 0000
00000080: 0f78 983b 1e36 813b c6dc fcbb f58f 083c
00000090: dc17 e53c bc48 bc3b 52bf 7b3c 2eda 87bb
000000a0: 0000 0000 05af 27bc 1ff6 32bc 0000 0000
000000b0: 9337 ea3b 9880 35bc aaed 673c 11d0 fabb
000000c0: 5137 6e3c c2dc 08bc e106 433c 78b1 b2bb
000000d0: b10b 753c 5c1a 353c d45a 90bc 1f41 963c
000000e0: 904a 20bc 2981 3a3c 6f71 483b 4d0e 393c
000000f0: 7b00 b53c ea4d 90bb 1152 14bc a913 3e3b
00000100: 0000 0000 adb9 823b a826 193b 119c 7a3c
00000110: a61f 42bc 6640 cfbb a161 a7bb 6580 503a
00000120: 1aad 3b3c 4967 463c c37d 103c 9383 733b
00000130: 1193 eaba 5067 5e3c 50e8 253c 0073 6abb
00000140: 3b3a f83a 6bea 09bc 53b3 23bc 4b06 8f3c
00000150: c042 57bc 18c6 c7bb c889 25bc ba3a 723c
00000160: ae60 5dbc 0000 0000 c963 e9bb 385f a53c
00000170: edbc c1bb 3ac7 3dbc 9604 5ebc abb0 993c
00000180: 895f 77bc 6867 f7bb 298d 46bc 1a6e 3fbc
00000190: 0ffe d43b a8eb 4c3c be75 0cbc c7f4 083d
000001a0: 56b7 a8bb d298 73bc f332 43bc 8cac 04bc
000001b0: d613 6abc 39b0 be3c 5c90 f4bb cec5 c4bb
000001c0: 12e5 e9bb b9c4 a33c bd6a 0cbc 8e26 ee3c
000001d0: b7ae 5d3c 3b61 94bb 903e 87bc 1e1e 19bc
000001e0: e57d afbb 5f0c 563b bf66 4dbb e875 afbb
000001f0: b7e0 3cbc 84fe 473c b198 c6bb 3394 973b
0.0 -0.009177115 -0.010418381 -0.015343028 0.018354837 0.011483508 -0.012089655 0.0025232562
-0.009586262 -0.012288735 0.0020156198 -0.011850196 0.0 0.0 0.0 -0.008031777
-0.009205232 -0.007862918 0.026484508 -0.013557044 0.009443234 -0.006003376 0.013231573 -0.013044096
0.0048218057 0.006463917 -0.012033166 0.0033752448 -0.011800817 0.01488097 -0.017352737 0.0
0.004652984 0.003943219 -0.007716748 0.008335103 0.027965479 0.0057459753 0.015365439 -0.004145882
0.0 -0.010234599 -0.010922938 0.0 0.0071477382 -0.011078022 0.014155785 -0.007654198
0.014539556 -0.008353414 0.0119034955 -0.005453285 0.014956401 0.011053648 -0.017621435 0.018341599
-0.009783402 0.011383333 0.003058519 0.0112949135 0.022094956 -0.0044038193 -0.009052769 0.0029003418
0.0 0.0039894194 0.0023368988 0.015295998 -0.011848366 -0.0063248156 -0.005108074 0.00079537026
0.011454845 0.012109586 0.008819046 0.0037157282 -0.0017896612 0.013574436 0.010126188 -0.0035774112
0.0018938252 -0.008417706 -0.009991485 0.017459055 -0.013138473 -0.0060966127 -0.01010365 0.014784509
-0.01351182 0.0 -0.007122491 0.020187005 -0.0059124143 -0.011583144 -0.013550898 0.018761
-0.015098461 -0.007550169 -0.012118616 -0.011683965 0.0065000127 0.012507357 -0.008572994 0.033436563
-0.0051488085 -0.014867978 -0.011914003 -0.008097779 -0.014286956 0.023277389 -0.007463498 -0.0060050255
-0.007137903 0.019991266 -0.00857037 0.029071119 0.013530425 -0.0045281923 -0.016509324 -0.009345559
-0.005355584 0.0032661182 -0.003134176 -0.0053546317 -0.011528186 0.012206677 -0.0060606827 0.004625821

sequential/dense_1/BiasAdd/ReadVariableOp f4 [3]
00000000: 9352 123c cf41 80bc 2076 093c
0.00893082 -0.01565638 0.00838998

sequential/dense/MatMul f4 [128, 128]
00000000: 516e 033e 62a0 14bd 004f 8cbb 90ef 9b3d
00000010: 2562 1b3e 604f df3b 8381 9bbd 4047 abbc
00000020: f8be 19be 9067 e8bd e04f f0bd 4fbf 96bd
00000030: 00e0 083a f868 5a3d f8b4 c23c b086 673d
00000040: b2bd 1fbd df97 9abd 6882 b13c 102e 393c
00000050: 3a44 f73d 800c bc3c e081 493d 41f0 17be
00000060: d027 debd 0760 f2bd b384 d4bd 2655 75bd
00000070: 98ca 553d 8086 10be 085b 423d de82 dcbd
00000080: de2b ca3d ac79 19be ac01 87bd 6ad1 e63d
00000090: b86e 963c 8291 e0bd 5c78 c5bd 98f1 1abe
000000a0: f949 0fbe 5807 15bd ae8e 0ebd 6a72 ef3d
000000b0: 84d3 883d 3a0a f53d 9ab6 813d f316 a0bd
000000c0: 53ba 113e aed3 d23d e065 563d d0f7 c2bc
000000d0: a809 353d 31b1 a0bd a884 073d 4462 61bd
000000e0: 08d8 e0bc 7ea5 d9bd dc47 c6bd d0d0 b03d
000000f0: e2b6 68bd 58a8 513d bd42 d8bd f64e 873d
00000100: cbb9 cfbd 9a80 8b3d 7d9a 043e 00d8 ef3a
00000110: 6ea4 d83d 934e 183e 9098 2e3d 0074 6bbc
00000120: 9806 a43c bd0c 17be b878 04be fe8d a9bd
00000130: 6036 833c 0658 99bd ac92 07bd 50f2 233c
00000140: 9690 edbd 9794 b4bd 1040 983c 8afe 943d
00000150: 2883 cfbc c4b3 033d 00bb 8b3a e075 583c
00000160: dc6a 96bd 0080 ec3b d471 5c3d f072 9e3c
00000170: 343a 12be 55c3 063e 9e24 fe3d a0c0 0e3d
00000180: 966e cfbd 706d b3bc 142f ccbd 18d6 023d
00000190: 14d7 813d e948 163e 9232 17bd 28d2 cf3c
000001a0: f048 4b3c 3e4c 5bbd 26d0 c23d 4247 9b3d
000001b0: 80b6 42bc e499 8c3d 7adb a9bd c5c2 0f3e
000001c0: 2fb7 89bd 44d2 433d 7d6b d5bd 7dd8 e8bd
000001d0: f1fd 0abe 38a9 823d 5979 183e e42f 4c3d
000001e0: e0ec 7dbc 30ad 0c3c c0de fe3b 75f9 93bd
000001f0: 98f5 fd3c 5dfd 03be 761b d13d e7bf 1a3e
00000200: 64b6 f73d 3a59 3b3d df65 103e 0aa4 fc3d
00000210: b87e 063e d32f 0cbe 8468 80bd 7b97 c7bd
00000220: 85cf b8bb 2d8b cb3d 2689 603d fbc5 2d3d
00000230: 9c7d cf3d a4ea d3bd f7c5 a9bd b325 89bd
00000240: 8f56 96bd d688 a63d 3a74 14be 6fc9 003e
00000250: 9ad2 80bd a0e9 c63d 52e8 1e3c 0dbf f2bc
00000260: 16f0 893c ce16 96bd 591b 353d 282e 41bc
00000270: 9a22 f83d 8a6c 0c3e fe87 35be c9db 3b3d
00000280: b09e 07be 113c af3d 00a1 813b adca e7bd
00000290: c949 49bd d903 7d3d 0c01 1abe 5840 30be
000002a0: 5add 01be 19f6 683d 0276 9fbd 559d 0fbe
000002b0: 9d0f 763d 3a6e a93d 8be4 0fbe f855 8dbd
000002c0: 131d 313d da23 563c aa93 0bbe 2079 f5bc
000002d0: 2191 5e3d 7b17 043e c80d 22bd bfd2 28bc
000002e0: dd46 bcbc c81f edbd c4b4 13be ca92 e5bc
000002f0: d872 9fbc 45c0 353d a4a1 16be 7d69 fbbd
00000300: 41e3 343e ff9c 693d 8bd9 32bd 1355 143e
00000310: 831d 0bbd 3bbd cbbd be79 973d 2d05 d03d
00000320: 1922 12bd 212b 21bc 9f69 c33d a2a7 0a3e
00000330: 1388 a43d 01cb 213d c987 143e 1f3c 983d
00000340: 72ce 013e aaeb e5bd 7b6e 003e b214 9a3d
00000350: 0e91 b2bd a6f6 b43d 34f9 01be 8e14 893d
00000360: 774b 1fbe 3420 07be c941 a83d cca9 e3bd
00000370: c06f 743c ac8f 5fbd 861d cfbd d86c 153e
00000380: 7e88 08be b788 0cbd 7a61 8f3d 33a7 efbb
00000390: 568a b4bb 7f8b 21bd 7115 edbb 3a42 c3bb
000003a0: d55b ccbc db4f bc3d 3882 b33d 012f ebbb
000003b0: efd8 843d 9a3f 63bd 4e7f f93c 6e09 943c
000003c0: fdd1 e83d 39be 6fbd 9a0e 4abd b593 a13c
000003d0: f420 dabc a876 3c3d 6bbf d9bb b8fb 323e
000003e0: 363f 28be 4b43 943d 615d 353c 3db0 4f3c
000003f0: d08f e63c 32b5 993d 1b6d 14be 7fa1 5cbd
0.12835051 -0.036285765 -0.0042818785 0.07614052 0.15174158 0.006814882 -0.07593062 -0.020907998
-0.15014255 -0.11347878 -0.11733985 -0.07360708 0.0005221367 0.053322762 0.023767933 0.056524932
-0.038999267 -0.07548498 0.021668628 0.011302486 0.1207356 0.02295518 0.049196124 -0.14837743
-0.108474374 -0.11834722 -0.10376873 -0.059895657 0.05219516 -0.14113808 0.047450095 -0.107671484
0.09871648 -0.1498782 -0.06592116 0.11270411 0.018363342 -0.109652534 -0.09642097 -0.15131223
-0.13993062 -0.036383957 -0.03480404 0.116917446 0.066809684 0.11964841 0.063336566 -0.07816877
0.14231233 0.10294281 0.05234325 -0.023799807 0.044198662 -0.078462966 0.033085495 -0.055025354
-0.027446762 -0.10627268 -0.09681675 0.08633578 -0.056815036 0.051185936 -0.10559604 0.066068575
-0.10142859 0.06811638 0.12949558 0.0018298626 0.105782375 0.14873724 0.042625964 -0.014370918
0.020022675 -0.14750953 -0.12936676 -0.08279036 0.016017139 -0.07487492 -0.03309886 0.010006502
-0.11599843 -0.08817404 0.018585235 0.07275112 -0.025331095 0.03215386 0.0010660589 0.013211697
-0.073446006 0.007217407 0.053819492 0.019341916 -0.14280015 0.13160451 0.12409328 0.03485167
-0.101285145 -0.02190277 -0.09969917 0.031942457 0.06339851 0.1467625 -0.036913462 0.025368765
0.012407526 -0.053539507 0.095123574 0.07581951 -0.011884332 0.0686529 -0.08293815 0.14039142
-0.067243926 0.047807947 -0.104208924 -0.11369417 -0.13573433 0.06379932 0.1489004 0.04985036
-0.01549837 0.008586213 0.0077780187 -0.072253145 0.031000897 -0.12889619 0.10210316 0.15112267
0.12095335 0.04573939 0.1410136 0.123359755 0.13134277 -0.13690118 -0.06269935 -0.097456895
-0.0056399726 0.09938655 0.054818295 0.042425137 0.1013138 -0.103474885 -0.08289712 -0.06696644
-0.073407285 0.08131568 -0.14497462 0.12576841 -0.06290169 0.09712529 0.009698944 -0.029632116
0.016838115 -0.073285684 0.044215534 -0.01179079 0.12115975 0.1371328 -0.17727658 0.0458639
-0.13244128 0.08556379 0.0039559603 -0.11317954 -0.049142633 0.061771248 -0.15039462 -0.17212045
-0.12682095 0.056875322 -0.0778618 -0.14024861 0.060073484 0.08272977 -0.14052026 -0.06901163
0.043240618 0.013070071 -0.13630548 -0.029964983 0.054337624 0.12899582 -0.039563924 -0.010304152
-0.022983009 -0.115783274 -0.14424425 -0.028024096 -0.019463941 0.044372816 -0.14710099 -0.1227598
0.17664815 0.05703449 -0.043664496 0.14485578 -0.03396369 -0.09948202 0.07396267 0.10157237
-0.03567705 -0.009836943 0.0954163 0.1354051 0.080337666 0.03950024 0.14504923 0.07433342
0.12676409 -0.1122659 0.12542145 0.075234786 -0.08719073 0.08836107 -0.1269272 0.066933736
-0.15556131 -0.13195878 0.082156725 -0.111163706 0.014919221 -0.054580376 -0.10113053 0.14592302
-0.13333318 -0.03431007 0.07001014 -0.007313633 -0.005509655 -0.039439674 -0.007235222 -0.0059588226
-0.024946133 0.09194919 0.08765072 -0.007177234 0.06486689 -0.055480577 0.030456211 0.018070903
0.11368177 -0.05853102 -0.04933033 0.019723753 -0.026627041 0.046011597 -0.0066451333 0.17478836
-0.16430363 0.072393976 0.011069627 0.012676296 0.028144747 0.075052634 -0.14494745 -0.053864952

sequential/dense_1/MatMul f4 [3, 128]
00000000: d92d 463e a9f4 eabc 9362 24be 54cc 863d
00000010: ac3e 8a3d 51d8 2f3e a5f9 133d 508d cc3d
00000020: 9fb6 c83d 9c52 e3bd f912 0f3e 8ee4 3abe
00000030: 0092 45bb f4a9 613d 6e46 2fbe 5a19 14be
00000040: 2ca5 373d 9251 22be ef03 ee3d c373 adbd
00000050: f35f 433e 422b 2d3e 3db8 533e 6e9e 9c3c
00000060: ddef 443e c900 4f3e 654f 15be 9ea9 0dbe
00000070: 182a 00bc a309 ecbd 78a5 cf3d a130 c2bd
00000080: 1b40 2bbe de5f e93d 4553 c8bd 48a6 3cbd
00000090: d8ad d53d c9c4 4ebe 019a 223e 5c52 693d
000000a0: 7cdd 55bd 2223 283e 10d8 943b e4b6 2c3d
000000b0: 9be3 d93d 0cfc 673d e1c0 babd 0fae 0fbe
000000c0: d097 083e c245 1abe 7818 493e 7a40 68bd
000000d0: aa9b f63d a7c0 5ebe dc9b 123e 7821 2f3e
000000e0: 79ea 48be 86e1 693e 0654 c1bd 40b3 99bb
000000f0: 8ef7 2c3e 68ef 80bc f001 fb3a 1d86 533e
00000100: 3868 90bd 016f 613e 5bb6 83be 3adb 0bbe
00000110: 701d 89bd 3af0 c2bd 5e93 3ebe 1400 e03c
00000120: 0ab5 5b3d c348 f0bd 390e 063e f73b 8bbd
00000130: 8351 ddbd a893 45be 31cd 093e 1641 ee3d
00000140: a49c 193e b4bf 2abe e8ca 8f3c 21bc 303d
00000150: b8e8 46be 02b6 023d f6f7 dd3d 95f2 623d
00000160: 78d3 b6bc de67 db3d 5861 65be c989 083e
00000170: cdcd 13bd 8a7b 10be f984 303e dbe4 0e3e
00000180: c6f2 94bd 9068 56be bfd8 0f3e b493 63be
00000190: fe57 4fbe 0b1c 2bbc 464f 4a3e fec9 73bd
000001a0: 2155 80bd 30ca 883a d05c 86bc 3c9e 853c
000001b0: c183 38bd 72fb 4d3e 655f 3f3e 0b82 3e3e
000001c0: 053c bf3b f9cc 86bd 5b25 06be 6f4b 513e
000001d0: 9359 013e 734a 0a3e e678 123d 3455 3bbe
000001e0: 3b58 103e fdc9 2abe 789a 133d e223 0fbe
000001f0: af19 f53c f05d 253e 5a4f 023b 20ff be3d
00000200: 4c43 56bd 682a 19bd ebff 663e d176 373e
00000210: 0826 b6bd b280 50be a4f1 9c3d d5de 983d
00000220: e9ec 463e 0fa1 e73d 621d 233d c4ef 5b3e
00000230: 0d34 473e a2e2 943d fe28 ef3d 028b 053d
00000240: 9eb6 1a3e df42 523e dfcc 623d 67c9 0abe
00000250: a1e7 b6bd 9f38 43be e2af 4bbe 735a d13d
00000260: 6f23 183e eb46 573d 238d 24bd 8a86 873d
00000270: ca21 e9bb c031 56be 1592 a8bb 4601 90bd
00000280: 86c6 053e 2735 27be eedf 2ebd cc07 0c3d
00000290: 50b3 53be 02d0 1dbd 80ef 903d 58f7 2c3e
000002a0: 12a4 853d a9ee 463e 3bb5 103e 8066 1cbd
000002b0: c603 30be 72be 4b3e 9248 083e c7db 793c
000002c0: 1ea4 12be 6aac 6cba 2848 683c 8a98 bbbc
000002d0: 3d26 67be 27cf 51be 1710 b83c 02de 83bd
000002e0: caad f53d 9826 253d 94d5 1bbe de94 73be
000002f0: 1383 0c3b 6cce b43d adf3 fb3d 8a9c 673d
00000300: 8f9c 5a3e f6c7 35bd ca5f 12be 271b 56be
00000310: ca48 db3c 7b32 f03d c5fa a83c 3fac f2bd
00000320: 12c4 9dbd ab6e 46be 9de4 0abe 2e91 9f3a
00000330: 3cca 21be b920 59be 5194 3cbe 0bfd b73d
00000340: e531 283e 6022 4dbd 6627 873d 16ef 5bbb
00000350: 8a80 b4bd e440 0b3e e67e 4a3e 6579 74be
00000360: ab44 2b3e b0a7 2bbc 2aa5 02bd b2a9 4bbe
00000370: a22f 02bd 1162 51bd a043 053e 8c5d 043d
00000380: 7088 413e 92ed e6bc 05f1 1abd 6a53 3b3e
00000390: 8079 ac3d 86f0 15bd 3571 4d3e 1c75 8cbe
000003a0: 5f68 433e a529 3fbd 3a4a d73d 0364 9bbd
000003b0: b4a4 a1bd 88bd 0fbc 3461 ea3d 74ea 373e
000003c0: 8425 823c 84b1 30be 0bfa 8dbd 63a6 e23d
000003d0: bb53 c2bd d2e4 8f3b 1f92 e43d 7f38 01bd
000003e0: 533f 743c 5b7d ddbd 6767 1e3e 8054 073d
000003f0: b020 5ebd 99a8 d33d e049 063e 3b27 18be
0.19353427 -0.028681116 -0.16053228 0.06581941 0.06750235 0.17172362 0.03612675 0.09987891
0.09800457 -0.11099741 0.13972081 -0.18251249 -0.0030146837 0.05509372 -0.1711671 -0.14462796
0.044835255 -0.15851429 0.11621844 -0.084693454 0.1907957 0.16911033 0.2067575 0.019118514
0.19232126 0.20215143 -0.14581068 -0.13834235 -0.007822536 -0.115252756 0.101389825 -0.094819315
-0.16723673 0.11395238 -0.097815074 -0.046057016 0.10433549 -0.20192255 0.1587906 0.05696331
-0.052213177 0.16419652 0.004542358 0.042166606 0.106391154 0.056636855 -0.0911882 -0.14031242
0.13339162 -0.15065673 0.1963824 -0.056702115 0.12041409 -0.21753179 0.14317268 0.17102611
-0.19620694 0.22839937 -0.09439854 -0.0046905577 0.1689131 -0.015739158 0.0019150358 0.20656629
-0.07051128 0.22015001 -0.25725064 -0.13657847 -0.06695068 -0.09518476 -0.18610904 0.027343787
0.05363945 -0.11732628 0.13091363 -0.06798547 -0.10806563 -0.19294608 0.1345718 0.11633508
0.1500116 -0.16674691 0.017552808 0.043148164 -0.19424713 0.031911857 0.108383104 0.055407126
-0.022317633 0.107131705 -0.22400415 0.13333811 -0.03608494 -0.14109626 0.17238225 0.13954489
-0.07272868 -0.20938325 0.14047526 -0.22224313 -0.2024841 -0.010443698 0.19756803 -0.059518807
-0.06266237 0.0010436233 -0.016401678 0.016310804 -0.045047525 0.2011545 0.18688734 0.18604295
0.0058360123 -0.06582064 -0.13100187 0.20438932 0.12631826 0.13504963 0.03575983 -0.18294221
0.14096157 -0.16678615 0.036035985 -0.13978532 0.029919473 0.16149116 0.0019883723 0.09326005
-0.052310273 -0.037393957 0.22558562 0.17916419 -0.08893973 -0.20361593 0.07663277 0.07464377
0.19426312 0.11310016 0.039822944 0.21478182 0.1945345 0.07269789 0.116777405 0.03260327
0.15108725 0.20533322 0.05537116 -0.13553391 -0.089308985 -0.19064568 -0.19891313 0.1022233
0.14857267 0.052557867 -0.04017366 0.06617458 -0.0071146237 -0.20917416 -0.0051443675 -0.07031493
0.13064012 -0.1632887 -0.042694025 0.034187123 -0.20673871 -0.03852845 0.07076931 0.16891229
0.065254346 0.19426979 0.14131634 -0.03818369 -0.1718894 0.19896868 0.13308933 0.015250153
-0.14320418 -0.0009028377 0.01417736 -0.022899885 -0.2257318 -0.20489179 0.02246861 -0.06438829
0.11996038 0.04032001 -0.15218192 -0.23787257 0.002144043 0.08828434 0.12302337 0.05654577
0.21348785 -0.04438015 -0.14294353 -0.20908795 0.026768107 0.117283784 0.020627389 -0.118492596
-0.07703413 -0.19378154 -0.13563772 0.0012174004 -0.15799803 -0.21203889 -0.18415953 0.08983811
0.16425283 -0.05008161 0.065993115 -0.0033559254 -0.088135794 0.13598973 0.1977497 -0.23874433
0.16725414 -0.0104769915 -0.031895794 -0.19888952 -0.031783707 -0.051118914 0.13014078 0.032315776
0.18899703 -0.028189454 -0.03782751 0.18293539 0.08421612 -0.036606334 0.20062716 -0.27433097
0.19082783 -0.046670575 0.105122045 -0.07587435 -0.07892743 -0.008773215 0.11444321 0.1796053
0.01588703 -0.17255217 -0.069324575 0.11066892 -0.094886266 0.004391291 0.11160683 -0.03154802
0.014907676 -0.10814925 0.15469132 0.03303957 -0.054230392 0.10334892 0.13114119 -0.14858715
